ai85net_kws_dash_best.pth.tar (torch, 709047 bytes, 11 tensors)

voice_conv1.op.weight f4 [100, 128, 1]
00000000: 3ebc 86be 6f6f 14be ae64 5eba d20d 4a3e
00000010: 2ab6 25bd ee0b 4c3e e877 323e 6d66 5a3e
00000020: f79d b23d 8c06 103e 1535 493a de46 a23d
00000030: ec59 fdbd 9f96 e0bd d27e 0bbe 36d4 51be
00000040: 84e8 81be a503 57be 59c5 5ebe f01c 62bd
00000050: 7a7e 75bc ce75 4d3d f1a0 1d3d 6002 183d
00000060: 4a28 4e3e 3d2a 1f3e ab36 243e 0e84 5d3e
00000070: f0bd 943e 0faf 443e d9b5 5b3e 7e58 123d
00000080: 47bc 633c 0588 a93c 657a 60be bcd4 6cbe
00000090: 9a48 73be 07a6 72be 6730 2cbe 70a2 64be
000000a0: 4e1e afbe 6b9f 1cbe 5bc1 f8bd c8c7 cf3d
000000b0: 049b f63d acdf 673d 1eb1 dd3d f6c5 4d3e
000000c0: 825f 823e 4306 7c3e 57fd a43e 21ad 933e
000000d0: a08f a83e b1d2 3dbc 00dd 923d 7ef8 babd
000000e0: e058 e9bd 9ef6 38be b80a 75be 12bd 88be
000000f0: 77d4 aebe ec6c 72be ab1c 00be 85be 2bbe
00000100: 86eb b2bd 2c00 0dbe 860e 3a3c 269a 233e
00000110: 4b94 f43c 9ddf a83e 0ff3 6c3e f4be ab3e
00000120: 1760 833e cd10 873e 12d2 a73d eb28 a63d
00000130: 4ad6 7b3c 851e 333d 45f0 53be fd7d 7ebd
00000140: c414 a0be b329 0dbe 94dc 5cbe c953 25be
00000150: 3ca9 64be ad0a 66be 8e8e eabd 9950 b5bd
00000160: 930d 553a b934 c93d e561 623e 45e0 653d
00000170: 50dd 6b3e 4bd7 773e cba7 573e 9c17 ad3e
00000180: 5c24 fc3d ce1e dd3d 937a b83d a015 0e3b
00000190: 2316 2bbe 55c9 c9bc 05b2 64be a3e9 59be
000001a0: b420 86be ce3c 8abd b612 22be d3e1 04be
000001b0: 37d3 0cbe 7981 a5bd dcf5 6dbd 8633 25bc
000001c0: 5eac 073d f2b6 5d3e c2c6 513e 6e16 293e
000001d0: d189 c23d 0be6 b73e 5b08 0f3d 0c87 873c
000001e0: 5587 c33d 15f2 e5bd 45a7 1b39 9844 3bbe
000001f0: 8395 a3bd d2bc ecbd d482 1cbe c8b3 593d
00000200: d58f 19be 8da8 e1bc 1fce 8f3d 7659 bebc
00000210: f063 86bc b236 99b8 e612 383d 8e13 be3d
00000220: 366b a5bc fc03 ad39 0be4 703d 958d cc3d
00000230: 979d 283d f9f4 3d3e e9fb 17bd b408 b53d
00000240: 714d d63d 32da 0abd 4ec5 853c 9b87 31bc
00000250: 1202 1a3c 978f ea3d 01e1 afbd f209 adbc
00000260: a143 54be 71ac cfbc 76ba 6dbc 90eb 07bd
00000270: c367 5bbe 7517 0dbe c18a 463d 3410 89bd
00000280: ffa6 89bd 97e1 81bc 50bd 01bd 4b0c a6bd
00000290: 88a5 013c 0d8a 5d3d a11b 41bd 546a 5e3d
000002a0: 21b8 9d3a e281 6e3e 168c 003e 6878 2f3a
000002b0: 4504 063e 2694 b73d 8de6 0f3e 47cf 36bd
000002c0: aef7 e53c 0b24 363e 8a41 9b3e 81b6 71bd
000002d0: 556a d1bd 169a 5ebd 9777 c9bc b7e4 20bd
000002e0: 8c60 d3bd ce5e 5fbd 32fa f0bd 7846 50be
000002f0: 62c7 f5bd e269 a3bc 68c9 47bc c3f1 d7bd
00000300: db71 b7bd aa26 d2bc ceb2 35be f04e 38be
00000310: 2c9b 973d 1450 fd3d bfa5 7cbd d2b9 5dbd
00000320: 46ca 903d a616 543e 23ca 8a3d 4519 c43d
00000330: 9c2c 933d 1897 4b3e d4bc 1f3e ca44 d83d
00000340: 0098 6cbb e633 363e a340 2e3e ba29 943c
00000350: 14e8 5a3b c26a b9bd d1e2 ecba d763 2bbc
00000360: f237 ebbd a29a d1bc 2a8d d6bd 036a 4fbe
00000370: 7d01 21be fb9a 273c e465 bcbd ace7 ffbd
00000380: 4708 a0bd f0a8 2fbe 5f5b 0dbd 12db 2cbe
00000390: b9de dcbc f7a9 473d 261c 3f3e 6c89 143d
000003a0: c87c 033e c66a 0dbe 12b8 6e3e 7227 093e
000003b0: 3529 c93d 5342 6abc ea6b 2f3e 84b1 a43d
000003c0: 5c93 003d 6634 e13d 1fed aa3d 8235 63bd
000003d0: b25c e1bc 5b68 06bd 66bf 903d 2763 86bd
000003e0: 3b71 10be 8642 433d 0e47 d53a 71eb f6bd
000003f0: 41a9 11bd 2c49 033b b70f 47be 1a88 89bd
-0.26315492 -0.14495634 -0.00084836304 0.19731835 -0.04045693 0.19926426 0.17428553 0.21328135
0.08721536 0.14064997 0.00076754513 0.07923673 -0.12370667 -0.10966229 -0.13622597 -0.20491108
-0.25372708 -0.20997484 -0.2175497 -0.05520338 -0.014983768 0.050161175 0.038483564 0.03711164
0.20132557 0.15543456 0.16036479 0.21632406 0.2905116 0.19207405 0.21456088 0.035728924
0.013899869 0.020694742 -0.2192169 -0.23128027 -0.23758164 -0.23696147 -0.16815339 -0.2232759
-0.34202808 -0.15295188 -0.12146255 0.10145527 0.12041286 0.056609794 0.10824798 0.20095047
0.25463492 0.24611764 0.32224533 0.28843024 0.32922077 -0.011585877 0.07171059 -0.091294274
-0.11393905 -0.18062827 -0.2392987 -0.2670675 -0.34146473 -0.23674363 -0.12510936 -0.16771896
-0.08736329 -0.13769597 0.011356002 0.15976772 0.029855868 0.32983103 0.23139594 0.33544123
0.25659248 0.26380005 0.081943646 0.08113273 0.015370915 0.043730278 -0.20697124 -0.06213187
-0.31265843 -0.13785438 -0.21568519 -0.16145243 -0.22330183 -0.2246501 -0.114529714 -0.088532634
0.0008127328 0.09824509 0.22107656 0.056122083 0.23033643 0.24203221 0.21060102 0.33807075
0.123116225 0.10796891 0.09007754 0.002168037 -0.16707663 -0.024632135 -0.22333534 -0.21280532
-0.26196826 -0.06749879 -0.1582745 -0.1297677 -0.13752447 -0.080813356 -0.058095798 -0.010083085
0.033123367 0.2165182 0.20485976 0.16512462 0.09498943 0.35917696 0.034920078 0.016543888
0.09547297 -0.11227814 0.00014844265 -0.18287885 -0.079875015 -0.11559452 -0.15284282 0.05314997
-0.14996274 -0.027546192 0.07021736 -0.023236018 -0.016405076 -7.305796e-05 0.044939898 0.092810735
-0.020192724 0.000330001 0.05881123 0.09987942 0.041165914 0.18550481 -0.037105475 0.088395506
0.104639895 -0.033899494 0.016329434 -0.0108355535 0.009399908 0.11453169 -0.08587838 -0.021122906
-0.20728923 -0.025350781 -0.014509788 -0.033183634 -0.214263 -0.1377848 0.04847217 -0.066925436
-0.06721305 -0.01585464 -0.031674683 -0.081078134 0.007913001 0.054086734 -0.04714549 0.05430062
0.0012033024 0.23291734 0.12553439 0.0006693662 0.13087566 0.08963804 0.14052792 -0.04463127
0.028072204 0.17787187 0.3032344 -0.05901194 -0.10225359 -0.054346167 -0.024593158 -0.03928062
-0.10321149 -0.054533772 -0.11766471 -0.20339382 -0.1200092 -0.01994795 -0.012194015 -0.10544159
-0.08957263 -0.025653202 -0.1774399 -0.17998862 0.074026436 0.12368789 -0.061681505 -0.05413229
0.070698306 0.20711765 0.06776836 0.09575132 0.07186243 0.19881856 0.15599376 0.105599955
-0.0036101341 0.17793235 0.17016844 0.018086303 0.003340249 -0.090535656 -0.0018072968 -0.010460815
-0.1148528 -0.02558643 -0.10476144 -0.20255284 -0.15723224 0.010229821 -0.091991216 -0.1249536
-0.07814079 -0.17154288 -0.034510966 -0.16880444 -0.026961671 0.048746075 0.18663082 0.03626387
0.12840569 -0.13810262 0.23312405 0.13393953 0.09822313 -0.0142980395 0.1713101 0.08041671
0.031390533 0.10996322 0.083460085 -0.05547095 -0.02751002 -0.032814365 0.07067756 -0.065618806
-0.14105694 0.047670864 0.0016271786 -0.12056626 -0.035561804 0.0020032628 -0.19439588 -0.067154124

voice_conv2.op.weight f4 [96, 100, 3]
00000000: 1c98 52be b6bd 85bd 0601 843c 9dff af3d
00000010: ecc3 a23d 110e 7bbb 9fe7 c3be 4495 78bf
00000020: e3e5 6fbf 80db b13e 63cc c83e 0c8d eb3d
00000030: 360e 1c3d 1ada ddbd b7f6 a43c deb3 e7bc
00000040: ffc9 4fbe 0e95 a23d c5dd 89be 2f31 19bf
00000050: 698f dfbe 54e3 adbc f3d7 42be 89c1 4abe
00000060: b95b 613e b5f6 ad3d cab5 843d 23c7 343c
00000070: fb89 ed3d 7f77 a43d cd08 39be 4873 a3bd
00000080: ad23 2b3d 0147 863c 4514 153e d6cf 2e3e
00000090: 0c6d 80bc 891e 0f3c 696b 56bd 637e 683d
000000a0: 2920 bd3e 3732 903e a4ed b93d 8ecd 163e
000000b0: b446 f53d f184 b93e fff6 e33e 4f46 883e
000000c0: f273 abbe 316a 4abe 69e9 b4be ae3f 4d3e
000000d0: c357 493b ce1c 503e 50ec 323e d171 3d3e
000000e0: 6e46 c23e 97b7 123f df3a 703e 6e79 353e
000000f0: aeff 21bf 605b 3cbf a89a 2bbf 8c32 e4bb
00000100: ee94 03bd 37c7 9abd af8d 223e 7ec3 583e
00000110: 9db9 953e 7d96 d13d 38a1 093b cf42 743d
00000120: d940 313e f7e8 133e 955f 98bd e402 0a3e
00000130: d97c 393d 7315 50bc 3d13 ad3e 1f84 153f
00000140: 6694 003f 19c5 9ebe fc08 88be e514 cbbc
00000150: 9dd1 81be e9f3 45be bb5d 1dbe 813a 0d3d
00000160: 34b3 67bd 0862 69bd 01d0 ca3b 5391 b33b
00000170: d38d 953d 5fd0 c1bd f35d 6d3d 97e7 b83d
00000180: 93ff 983d 1633 263e 0a2e f93d 6639 d23d
00000190: 22ee 903c 128d 29be 1421 843d 851f 963e
000001a0: b0df 7a3e f075 933d 6951 9ebe 3673 9dbe
000001b0: ec90 2cbf dc15 2ebf 547c 1bbf a5da 7c3d
000001c0: 91bd 7dbe c119 00bd 61d2 e83c aebb ddbd
000001d0: 34ff b13d f487 a73d 3b42 11be 3bf9 913d
000001e0: cf7b 2ebe 0afd f5bd b6a4 a6bd 02e7 dcbc
000001f0: 52a0 39bd ae2c 91bd e9fa 53be 9ade 13bf
00000200: 3ea4 bbbc 96b0 933e 19bd 653e cab4 bc3d
00000210: d215 633e 7502 6abc e2d7 8ebd 875d b5be
00000220: 9a8f dcbe cc64 0bbf b910 073e 9266 2d3e
00000230: f809 0f3d c4aa e33d 24cb a73e 61b5 443e
00000240: 854e debe d8b7 5ebf 0693 34bf b9db a23e
00000250: 933c 363e fe88 4c3e ac99 9c3d 1c62 143e
00000260: 5ba4 883e b6ab fb3d bc1e aabd 1d75 72bb
00000270: c5c5 86be fe2c 7cbe 0aa9 0bbf 656f 623e
00000280: 38b2 ff3d 15dd fc3d 3fce 9abd 2794 143d
00000290: 0ae1 83be 6caa 053f fda2 cb3e fcbc c43e
000002a0: 5823 f53d 2b9f 383d c644 98bd de02 7d3e
000002b0: f53e a03d 9973 9dbd 1de5 fa3e f497 473e
000002c0: ef17 d43d 929a 313d 2a01 2e3e b47c 6b3e
000002d0: 9bcf d23d 5171 3f3e 1a52 893c f60a b43d
000002e0: d835 323e 7444 5bbd 84a3 d5be 09ee 38bf
000002f0: 2c87 c8be 946f 5d3d 57d9 2abd ee40 28be
00000300: 272c f13e 8472 3f3e de9f 093e 3a17 563d
00000310: 4e61 743c 9f6c 1fbe 0f72 a5be 9809 6fbe
00000320: 7819 0dbf aa5b a4bd 5a6f 08bd 57d8 4bbc
00000330: 87c6 c5bd 05c6 0b3e 6a21 373e 2908 b13d
00000340: 317f 85bc a06c 8ebd 848d 523e 8f58 003e
00000350: 18f9 983e 39ad ecbe 16cd d2be 800e e4be
00000360: c40b a23d 604d 08bd caf0 103e cfb7 0d3e
00000370: 0adf 1fbd bcbd b13d 89ff fb3d 6c6c 6f3e
00000380: f7ae 0abd db0c d3bd 2cdb 48be 3a2d 8bbe
00000390: e14e 5abd 8984 7ebb c9b2 6c3d 1df3 b33e
000003a0: 9640 f93e d4b8 e73e e16d dc3e 8267 243f
000003b0: f387 0f3f 4018 913e d283 8b3d 4e35 8a3e
000003c0: a7d3 623c ede0 3b3d 7580 1d3e 0348 703c
000003d0: 78ce 623d 8664 383e f9c3 0fbe ca24 3fbe
000003e0: f55d b2bd 1c80 d8be db52 37bf b53c 66bf
000003f0: 2111 5b3e 383a d93d 740a a03d 9a6d 493e
-0.20565838 -0.06530325 0.01611377 0.08593676 0.079475254 -0.0038307945 -0.3826265 -0.9710276
-0.93710154 0.34737778 0.39218435 0.11501512 0.03809949 -0.10832615 0.020137174 -0.02828401
-0.20291899 0.07938586 -0.2692701 -0.59840673 -0.436641 -0.021226563 -0.1902769 -0.1980039
0.22007646 0.08494321 0.06479986 0.011033806 0.11598583 0.080306046 -0.18069763 -0.079809725
0.04178207 0.01639128 0.14558513 0.1707147 -0.015676998 0.0087353075 -0.052348528 0.056761157
0.369386 0.2816331 0.090785295 0.1472685 0.11976376 0.3623424 0.4452438 0.2661614
-0.33486897 -0.19767071 -0.35334328 0.20043823 0.0030722476 0.20323488 0.17472959 0.18500449
0.3794436 0.57311386 0.23459958 0.17722103 -0.6328076 -0.7357693 -0.6703286 -0.0069640335
-0.032124452 -0.075575285 0.1587436 0.21168324 0.29243174 0.102337815 0.0021000635 0.059634026
0.17309894 0.14444338 -0.07440106 0.13477665 0.04528508 -0.012700426 0.3380374 0.58404726
0.5022644 -0.3100975 -0.26569355 -0.024790237 -0.25355235 -0.19331326 -0.15367787 0.03447962
-0.056567386 -0.056978256 0.006189347 0.0054799705 0.073024414 -0.09463572 0.057950925 0.09028547
0.07470622 0.16230425 0.121669844 0.10264854 0.017691676 -0.1655772 0.06451622 0.29320922
0.24499393 0.07200229 -0.30921486 -0.3075196 -0.67408633 -0.68002105 -0.60736585 0.061731953
-0.24779345 -0.03127456 0.028420629 -0.10826813 0.08691254 0.08180228 -0.14185421 0.07127615
-0.17039417 -0.12011154 -0.08136885 -0.026965622 -0.04531891 -0.070886 -0.20701183 -0.5776154
-0.022905465 0.28845662 0.22435416 0.0921417 0.22176293 -0.014282812 -0.0697477 -0.35422918
-0.4307831 -0.5445068 0.13189973 0.16933659 0.034921616 0.11116555 0.32772171 0.19209816
-0.4341928 -0.86999273 -0.7053684 0.3180826 0.17796545 0.19974133 0.07646498 0.14490551
0.26687893 0.12288611 -0.08306643 -0.0036996074 -0.2632276 -0.24626538 -0.5455481 0.22112806
0.124851644 0.123468556 -0.075588696 0.0362741 -0.2575763 0.5221317 0.39772788 0.38425434
0.11969632 0.04507367 -0.074349925 0.24708125 0.07824508 -0.07688064 0.49002925 0.1949156
0.103561275 0.0433603 0.16992632 0.22996789 0.10293504 0.1869557 0.016762782 0.08791153
0.17403352 -0.05353208 -0.41726315 -0.7223821 -0.39165628 0.054061487 -0.041711178 -0.16431019
0.47103998 0.18696028 0.1343989 0.052268244 0.014915777 -0.1556878 -0.32313582 -0.23343503
-0.5511699 -0.08025296 -0.033309318 -0.012441716 -0.09657007 0.13649757 0.1788384 0.086441346
-0.016296001 -0.06954312 0.20561796 0.12533782 0.29877543 -0.46225908 -0.41172093 -0.44542313
0.079124 -0.033276916 0.14154354 0.13839649 -0.039031066 0.08678767 0.12304599 0.23381203
-0.033858266 -0.10305186 -0.19614857 -0.27182943 -0.05329788 -0.0038836321 0.05778769 0.35146418
0.48682088 0.452582 0.4305258 0.6422044 0.5606682 0.28338814 0.06812252 0.26993793
0.013844407 0.045868803 0.15381034 0.014665606 0.055372685 0.18007097 -0.14039601 -0.18666378
-0.08709327 -0.4228524 -0.716108 -0.8993638 0.21393253 0.106068075 0.07814494 0.19670716

voice_conv3.op.weight f4 [64, 96, 3]
00000000: 4c07 743c 3d65 a6be bd78 58be 9240 23be
00000010: 3eba 3fbe 9a82 debd 2379 4a3e b26f 04be
00000020: 0d22 943e 92f3 bebe 5ddf 223d 26ab c9bd
00000030: d3aa cfbd 9bf1 fc3c fef8 1ebe 4434 023e
00000040: d860 73ba d1ff 7cbc e3b7 71bd 7efb 4b3c
00000050: a6a9 1cbc c792 303e 2e22 873e 924b f83c
00000060: 8d3f 9f3d 2985 003e 1346 dbbd b61c 443d
00000070: aa16 5bbd 70d5 183e 3790 1c3e aef4 813c
00000080: 5f0e b3be d483 97bd 188e 18be 699d 4abe
00000090: 6cb3 d93d 6909 fd3d b16e a33d 3ae9 293e
000000a0: 583d ae3e e4b0 4d3e c520 983d 554a bbbd
000000b0: 2050 11be b75b 2dbf f9b6 8a3d ee8b 173e
000000c0: 8651 29be 6f8d cd3d 0c3c afbe 6ca7 783e
000000d0: 43ed 15be f9c8 03be cdd6 023f b740 00be
000000e0: 3b7a de3d 2f02 c9bd 07b8 0e3e 04e3 50be
000000f0: c019 f4bd 285f 96be d021 97be bed6 8dbb
00000100: 9fcd 4d3d 4b5f 7a3b 6405 ebbc 525c 89be
00000110: 7ba9 15bf fcaf eb3e 52d8 823d 13dc 0f3e
00000120: 6437 773d 87f9 973d 8e1f 1b3e 7004 5fbc
00000130: 1b55 863c 22de cabc 0e0e 30be e98e 32be
00000140: e331 c23b 3861 07bf 2dd4 9bbe 7464 38bd
00000150: a5ac 43bd 4c20 b2bd 37e5 743d 876a ebbb
00000160: 34fa 0a3e cfc2 063e c9ad c23d 1e11 06bd
00000170: 25ef 15be dc04 8fbe 9494 86be c785 04bf
00000180: 7292 22be 0e53 45be 3bd6 953c 43b7 943d
00000190: 525f 78bc ba31 063d 5d51 b2bd 3d83 82bc
000001a0: c654 a33c 1389 4dbd 8102 88bd e76a 66bc
000001b0: 2655 303d e081 c53d 1c64 f73d 463f 093e
000001c0: 3bea 3fbd a470 c53d 9c0b 8ebe 11c5 f83c
000001d0: d941 0c3e 3f6e 343d 6336 82be 591f 04be
000001e0: 6f1b 9f3d dff7 903d 0c48 11bd db3c b23e
000001f0: 9354 823d 7b3d 533e 0e81 e43b 5f50 15be
00000200: 2c6e 71bd a214 e0bd 8578 023e 7c28 353e
00000210: 58b1 33bd 20c9 11be cbed 4fbc 80a8 a63e
00000220: dd09 b0ba 2f7e aa3d 6893 9c3d e233 5a3c
00000230: faa5 263e 7498 41be 4f65 b63d 8518 143e
00000240: dc2f 8abe 8303 3fbd b951 85be 326b 01be
00000250: 3e3c cdbe d22c 1bbf 8d0a b8bd 62ab 1f3e
00000260: dfc5 c83d 8f02 c0be 9f65 c2bd 9970 30bf
00000270: 1ac6 b73e 0ce4 5e3e 6e15 d73e 9f13 39bd
00000280: f346 a93d c095 edbd 9700 9c3c f277 343d
00000290: eb1b 1ebc 7b4e 34be a193 0e3e 04c5 babd
000002a0: 0f5c b03e 7461 a0bd 52cb 8c3e 60c8 a4bc
000002b0: da06 6ebe c1d4 81be c156 763e d462 3f3e
000002c0: 1a23 553e 1b4c 41bf 1516 47bf cc3f 05bf
000002d0: d332 80be 72ba b83e 0524 823e b9cc 81be
000002e0: 4d61 7f3d 12a2 cd3e c5dd 303e 004b 313e
000002f0: b3c9 0d3e c4a7 583e a7b3 553e 0c6b 023f
00000300: 98ca c33d 5eb9 dcbd 6257 83bd 5a7f 41bd
00000310: e06f a73c 39aa e1bd c44f e53d 7074 2fbe
00000320: 615c 9fbd 0ee5 64be ccb8 3ebe 9812 413d
00000330: c7ee ae3c 3bf8 843e 6edf 023c 2dc9 2a3d
00000340: 2b30 583d b7f9 80bd d96c 1c3e 09ef b33e
00000350: ed95 c43e af75 21bd c6c0 853d b801 923c
00000360: 42ae 103e 30a4 f63c 4ef7 7dbd 680b 8f3e
00000370: b18f 2f3d 69ab 9abe a034 bf3d 5c9a 323d
00000380: 5ef9 bc3e 690a 093e 6873 1cbe 99cb f7bd
00000390: e449 c33d 7f0e a3bd 3217 b5bd 43c0 a5bd
000003a0: f171 e33d 40fa 82be 3983 32be 8aba 96bd
000003b0: cc04 5abe b5a0 da3d e2e9 133d 15df 3d3e
000003c0: c382 ddbd 79a3 39be a34d c63d e270 dfbd
000003d0: 0d76 0b3e 80b5 6bbe 57b9 17bd c4da d43d
000003e0: b43e 1d3e c8cf b33c 53e2 1cbe 65c4 02be
000003f0: a04c 893e 71c8 a7be 3159 a0bc 9f47 00bd
0.014894318 -0.32499114 -0.21139808 -0.159426 -0.1872339 -0.10864754 0.19772772 -0.12933233
0.2893223 -0.37295204 0.039763797 -0.09847097 -0.10140004 0.030876925 -0.1552467 0.1271525
-0.0009284145 -0.015441851 -0.05901326 0.012450097 -0.009561932 0.17243491 0.26393265 0.030309472
0.07775793 0.12550797 -0.10706725 0.047878943 -0.05348841 0.1492517 0.15289389 0.015863743
-0.34971902 -0.07398191 -0.14897954 -0.1978661 0.10629925 0.123553105 0.07980097 0.16592875
0.34031177 0.2008701 0.07428125 -0.09145037 -0.14190722 -0.6771807 0.067731805 0.14799473
-0.16535005 0.10036742 -0.342255 0.24282616 -0.1464129 -0.12869634 0.5110901 -0.12524687
0.10863157 -0.098148696 0.13937388 -0.203991 -0.11918974 -0.29369473 -0.29517984 -0.004328578
0.050244924 0.0038203772 -0.028689094 -0.26828247 -0.5846173 0.46032703 0.06388916 0.14048795
0.06035556 0.074206404 0.15148756 -0.013611898 0.016398003 -0.024764124 -0.17192861 -0.17437328
0.005926357 -0.5288272 -0.30435315 -0.045017675 -0.04777207 -0.086975664 0.05978891 -0.00718433
0.13572007 0.13160251 0.09505803 -0.032731168 -0.14642008 -0.27933395 -0.2628523 -0.5176663
-0.15876177 -0.19269964 0.01829063 0.07261517 -0.015159445 0.032762267 -0.08706925 -0.01593172
0.019937884 -0.050179552 -0.066411026 -0.014063573 0.043049954 0.09643912 0.12079641 0.13403043
-0.04685424 0.09640625 -0.27743232 0.030367406 0.13696994 0.04405045 -0.2543212 -0.12902583
0.077689044 0.07078528 -0.0354691 0.34812054 0.063637875 0.20628922 0.0069733923 -0.1458144
-0.05894296 -0.109414354 0.12741287 0.17691225 -0.0438703 -0.1423688 -0.012690972 0.3255043
-0.0013430674 0.08324849 0.07645303 0.013318034 0.16274253 -0.18905813 0.08906042 0.14462478
-0.2698964 -0.04663421 -0.26038912 -0.12638548 -0.40085024 -0.60615265 -0.089863874 0.15592721
0.09803366 -0.37501952 -0.09492039 -0.6892181 0.35893327 0.2176668 0.42008537 -0.045184728
0.082654856 -0.11600828 0.01904325 0.0440597 -0.009650211 -0.17608063 0.13923503 -0.09119609
0.34445235 -0.07831088 0.2749887 -0.020115077 -0.23244801 -0.2535763 0.24056531 0.18690044
0.20814171 -0.7550675 -0.7776807 -0.5205047 -0.25038776 0.36079746 0.25418106 -0.25351503
0.062348653 0.40162712 0.17272098 0.17313766 0.13846473 0.21157748 0.20869313 0.5094459
0.09560126 -0.107775435 -0.06413151 -0.047240593 0.020439088 -0.110187955 0.11196855 -0.17134261
-0.07781292 -0.22353002 -0.18625182 0.047136873 0.021354092 0.25970635 0.00798784 0.041695762
0.05278031 -0.06297629 0.15275897 0.35143307 0.38395634 -0.039418872 0.06530909 0.017823085
0.14128974 0.030107588 -0.062003426 0.2793839 0.042861644 -0.302089 0.09336209 0.04360424
0.36909002 0.13382877 -0.15278399 -0.1209938 0.09535578 -0.07961749 -0.08842315 -0.08093312
0.11105717 -0.2558155 -0.1743287 -0.07359798 -0.21290892 0.10675184 0.03611172 0.1854213
-0.108159564 -0.18128766 0.09682777 -0.109102026 0.13619252 -0.23018456 -0.03704199 0.10393289
0.1535595 0.021949664 -0.15320711 -0.12770231 0.26816273 -0.32770112 -0.01957378 -0.031318303

voice_conv4.op.weight f4 [48, 64, 3]
00000000: 7b96 9bbd 7d36 d9bd 46dc f3bd e9bc 003e
00000010: 2db7 82be 0154 14be 5922 d93e 8a61 ef3e
00000020: 9ee4 bdbe b86e 8f3d cc5a 27be 166b bdbd
00000030: c774 323e 7462 053e 7669 8c3d abba 4abe
00000040: 5d90 7d3e fb42 c8be 931b b63e 7bde 273e
00000050: e5fd 90bd 6f52 f5bd cefa 06be 97ae a5be
00000060: 3e08 c7bd e4c6 d73e 3d5a d33e bba5 da3e
00000070: 855e af3e 58c2 79bd 8d1d 643d 2c76 183e
00000080: fdaf 883d 5358 773c ceea 30be 9941 cdbd
00000090: 67e2 d73d 42f9 923c 1a3b 62be 6b3d 653d
000000a0: f48f 1cbe 5811 353e 942b a9be c584 26be
000000b0: b229 eabd ed32 9bbe bbb8 39be 04ed 0abf
000000c0: 00e7 e1be 0611 05bf c7b0 d2be dc54 51bf
000000d0: c3c9 153e 3c2e dbbe 0e00 e43e eba6 e13e
000000e0: 1067 423f 61c5 223e 8cef 20be c401 4abd
000000f0: f9d9 0abe d2f5 e33c b4e8 0cbe bfd5 29be
00000100: b0e7 043e 4b9c 913d 7265 83bd 4d41 a1bd
00000110: 3bfb 853e 503d aebe d17d 2abf fef7 fbbe
00000120: ec71 f7be c0c9 d7be 0fdf 65be 6de7 303c
00000130: 0d71 6ebe 5cdd 17bf 5584 d5be 3708 9c3e
00000140: ca74 ba3e 2c6b 003d d8cf 3cbd c85d 24be
00000150: c0f6 0b3d 6cc1 a03e f600 4c3e 5b5b 15bf
00000160: 3886 b43d 06a6 87be c81e 823e 0c5d 063e
00000170: 9e86 b33e 5921 a1bd 9f3a 963c 1802 acbe
00000180: 9d2b 903d c24f 0ebe 88ce 653e 0c5f 12bf
00000190: c832 ffbe 6758 27bf c554 653e 4c90 303e
000001a0: 55d8 0d3e 4441 85be 8406 f5be 8412 2ebf
000001b0: 9272 c6bd 1d3c f6bd be0d bcbe d75e e8bd
000001c0: 6964 0fbe de0b a3be 52d3 e63d 707a 2cbd
000001d0: 2d4e 3e3b 9097 3dbe 9d1f a93e cb41 4b3e
000001e0: 53bb 7f3e 30e9 61bd 4f48 1cbd 91a4 1b3e
000001f0: 7527 66be c074 23bf 27a4 3bbf 1efb 44be
00000200: 1584 d5be bb28 3fbe 2eb8 07bf fabd eebd
00000210: 2420 6fbd 5c6d ffbd 3856 09be 1df1 c33c
00000220: 54a1 ac3d 122c 363e 8e65 683d b4a3 4bbe
00000230: 47a0 f5be 5292 b1be b449 e0be 37e1 8cbe
00000240: 7e6f 77bb 8d0f 923d cf66 073c 51fb 88be
00000250: 67bc 6ebe 103e fbbd d196 00bd 00d4 ad3b
00000260: 0eab 473d f20b 633c 1a50 81bd 2d90 bb3d
00000270: 57c7 243e a65b fe3d 4016 7d3e 9e96 e1bb
00000280: 8ee9 cabe 604b f5bd bdf4 eabe ab93 94bd
00000290: c415 51be f6ec 0bbf 354f 7ebe 3a04 50be
000002a0: 014a 50bc c25d 8ebd dcc7 813e b9c4 b63d
000002b0: 3025 7dbd e4e2 56be 3975 03be 2fe0 81be
000002c0: db84 773e 6ff1 ab3d efff ba3c 1d48 c43d
000002d0: 21b9 30be 1ed5 3fbe 9b78 53be 2123 f3be
000002e0: 77ee 27bf bdf3 2cbe 1a6b 4b3e e801 b93d
000002f0: fd22 3d3d e990 76be 9f48 93be bfa8 77be
00000300: 8892 17be 2b8b 0fbe fa79 17be bce0 853e
00000310: 29ce 7dbb f6c3 76be 4f44 523e 14b0 cd3d
00000320: f218 e0bd 94ae f93c fe6f b43c 014e cabd
00000330: eca1 c43d cc10 b03d 1af2 ce3d e34c 4ebc
00000340: 602b f8bd 3c83 5d3d 0689 863d 78be 333d
00000350: c460 273d d8f0 debd cb2a 00be 3a8a b7bd
00000360: 35dd 9dbd bc72 523d c757 ffbd 3ec4 653e
00000370: 91aa 0e3f b87a 493e d618 c7bd 0e1f 09be
00000380: 940e 27bd 211e bebc 0aa3 663d 0c50 40be
00000390: 07da 1ebe 904f 72be fbbd 473e 962e 9cbe
000003a0: e078 8fbc 3e4a 863d 2513 203e 82f9 af3d
000003b0: ef3f 033d 2c6a 12be cb55 6bbe 0ad7 62bd
000003c0: 3d70 08be a772 fabd 4ff5 8f3d dd96 23be
000003d0: 9357 99be 8781 abbe c563 4f3e 53c5 133e
000003e0: d10f 893e a120 cf3d 17ad 8e3d aa53 223d
000003f0: 9d77 17be 1018 fabd a04c 52bd 3562 213f
-0.07597061 -0.10606096 -0.11907248 0.12572064 -0.25530377 -0.1448517 0.42409018 0.46754104
-0.37088484 0.0700354 -0.1634323 -0.09248941 0.1742736 0.13025838 0.068560526 -0.1979777
0.24762101 -0.39113602 0.35567912 0.16393463 -0.070796765 -0.119786136 -0.13181612 -0.32359764
-0.09718369 0.4214393 0.41279784 0.42704567 0.342518 -0.060976356 0.055692244 0.14888829
0.06674192 0.015096742 -0.17277071 -0.100222774 0.1054123 0.017941121 -0.22092858 0.055966776
-0.15289289 0.17682397 -0.3304106 -0.16261585 -0.11433734 -0.3031229 -0.18136875 -0.5426791
-0.44121552 -0.519791 -0.41150495 -0.8177011 0.14627747 -0.42808712 0.44531292 0.4407266
0.7593851 0.15895607 -0.1571638 -0.04931809 -0.13559712 0.027827177 -0.13760644 -0.16585444
0.12979007 0.07109889 -0.064158335 -0.07873783 0.26168236 -0.34031153 -0.6659823 -0.4921264
-0.48329103 -0.4214611 -0.22448371 0.010797364 -0.23285313 -0.5932214 -0.41702524 0.30475017
0.36417228 0.031352207 -0.046096653 -0.160514 0.034170866 0.3139757 0.19922242 -0.5834252
0.08814663 -0.26493853 0.2541411 0.13121432 0.35063642 -0.07867689 0.0183385 -0.33595347
0.070395686 -0.13897613 0.22442067 -0.5717628 -0.4984343 -0.65369266 0.22395618 0.17242545
0.13852055 -0.26026356 -0.47856534 -0.67997 -0.09689821 -0.120231844 -0.36729234 -0.11346214
-0.14003147 -0.3184499 0.11270775 -0.042108953 0.0029038296 -0.18514848 0.33031932 0.19849317
0.24973802 -0.055154026 -0.038154896 0.15199496 -0.22475989 -0.6385002 -0.7329735 -0.19236419
-0.41702333 -0.18667881 -0.5301541 -0.11657329 -0.05838026 -0.124720305 -0.13411796 0.023918683
0.084292084 0.17790249 0.056737475 -0.19886667 -0.47973844 -0.34681946 -0.4380623 -0.27515575
-0.0037755664 0.07131872 0.008264258 -0.2675424 -0.23314057 -0.12267697 -0.03139383 0.0053048134
0.048747115 0.013857828 -0.06314106 0.09158359 0.16091667 0.12419824 0.24715519 -0.00688441
-0.39631313 -0.11977267 -0.45889845 -0.07254728 -0.20418459 -0.5465845 -0.24834903 -0.20314112
-0.012712956 -0.06951477 0.25347793 0.089242406 -0.061803043 -0.2098499 -0.12837686 -0.2536635
0.24171774 0.08395659 0.022827117 0.09584067 -0.17258121 -0.18733642 -0.20651476 -0.4748774
-0.65598243 -0.16889854 0.19865075 0.09033567 0.046175946 -0.24078716 -0.28766343 -0.24185465
-0.14801991 -0.14017932 -0.14792624 0.2614802 -0.0038727617 -0.2409819 0.2053387 0.1004335
-0.10942258 0.030478753 0.022026058 -0.09878159 0.09601197 0.08596954 0.10104771 -0.012591573
-0.12117648 0.054080233 0.06569104 0.043882817 0.040863767 -0.10885781 -0.12516324 -0.089619115
-0.077082075 0.05137895 -0.12467914 0.22438142 0.55729014 0.1967572 -0.09721534 -0.13390753
-0.040785387 -0.023207726 0.05630783 -0.18780535 -0.15512858 -0.23663163 0.19506066 -0.30504292
-0.017513692 0.06557129 0.15632303 0.08592512 0.032043394 -0.14298314 -0.22981946 -0.05538086
-0.13324066 -0.122288994 0.07029211 -0.15975519 -0.29949626 -0.3349726 0.20252903 0.14430742
0.2676988 0.10113645 0.06966608 0.03963057 -0.14791723 -0.12211621 -0.051342607 0.6304048

kws_conv1.op.weight f4 [64, 48, 3]
00000000: 48bc e33d 93ec a43e f589 a13c a6eb e4bc
00000010: 981c 2b3d 3bcf e03d a170 f43d 2d00 673d
00000020: 3706 d3bc 9f45 5a3c a0ae 01be dfc8 97be
00000030: 8b6a 973e 207a e73d d71f ef3d c9a9 913d
00000040: 15e4 4f3d cc34 a0bd 8842 4f3d 3f9b ee3d
00000050: 6067 eabd 3eb6 33bd a6e3 a43d 16c8 5dbe
00000060: 8b58 813b a745 8fbc be0b 2dbe 600e 1f3e
00000070: 6551 40bd c5bb a4bd 5c87 22bd 6876 3fbf
00000080: 4fab b1be b8de 2ebe 2cfa 18bf 62c2 ccbe
00000090: 221f 753e 04e0 263c bd0f 0e3e c32e 133d
000000a0: f576 42bd eaf5 6fbe 5cc6 c5be 2ff6 dcbe
000000b0: 21d8 0fbe 2608 e4bd bc5c 1bbe d77c 6dbe
000000c0: 2b95 31be a058 48be 433c 6dbe 70f1 b1bd
000000d0: cc57 eabe 02c8 20bf a47b 793e 5221 8cbd
000000e0: 15c9 d6bd 171d 5bbe eda3 55be a42e e3bb
000000f0: aa28 343e 6a1b f23e ae14 bb3d c2d1 483e
00000100: 548b 91bd 3d5a dd3d 063c 9b3d d778 f8bb
00000110: 604a c9bb a763 edbc 68f9 86bc 341b b2be
00000120: 2c2d ce3e 35e3 1fbd 4391 3fbf 8596 8e3e
00000130: 5e31 193e 0872 5d3d 2138 0ebd aa32 30bd
00000140: 7e16 febd 096b 5ebe 4421 413d 5e08 b93e
00000150: 8bc8 cd3c e010 393d 8a81 c7bd ae08 b9bc
00000160: 4a38 12be 1fa8 153e 6b3d 2ebe 5501 d7be
00000170: 37f7 f3be 7e2a 99be b8fa 31bf de2b 3cbf
00000180: c068 4e3e 5533 b83d 66cf d4bc 496b dcbd
00000190: 2a9b 0e3d a215 b0bd 0cc4 a7bd 4c80 a23d
000001a0: 1579 ec3d 92bc 343d b1da 40bd a164 713c
000001b0: 07e2 033e 577b db3c 4a13 7cbe 5f66 2c3c
000001c0: 1ff9 72bd 5359 8bbe a7d2 d83b 0e7b 403d
000001d0: c3ad f8bc c73a a03d c1c1 ad3d ddbc f23d
000001e0: 63d4 583e 67c8 0d3d e7f7 4ebe f5af d13b
000001f0: 5902 51be 0764 11bf 3e61 063e 0b32 84be
00000200: cf02 033f 3852 dbbe 02f4 1bbf 4ebf edbe
00000210: fd1b aa3e ca6e ae3e d044 68be 4a0b 493d
00000220: 1fa3 dc3c d656 4abd 8e04 dd3d 7ed5 433d
00000230: 2eff 733d 9b65 9cbd 5547 6c3c 14aa 04be
00000240: 04b9 223d 93d2 58bd b502 09bd 0b19 103e
00000250: e1be 9b3c 7e0f 33be 230c 4abe bc9e 7fbe
00000260: ec32 69be 0a7b 003c a6ac 6c3c 1f65 20be
00000270: e193 293d d4e8 be3c 0a3b 30bd b5d7 4a3e
00000280: b79d f1bd 087b c7be 6a36 143c 68af 23bd
00000290: 6cf1 60bd 063e 5dbd b9e7 dfbe e4fe 7bbe
000002a0: 692d ab3d 4253 333d daa2 a0be cbe4 713e
000002b0: ee6e 143e c6e6 abbb aea0 213e 6ce0 1abe
000002c0: 0fc7 3fbe cace f03d 08d2 47be b337 86be
000002d0: e6b8 15bf cca4 70be 7f8e 8cbe 0576 3fbd
000002e0: 6a50 b8bd 9cf6 70be 6608 e8be 14f8 91be
000002f0: 59e4 debe 5c01 b03d b75c 353d ad8a 8fbd
00000300: 5df3 343e d27c 113e 335c 853c 99b4 7cbc
00000310: 2249 bd3b 020d c0be 2ece e13d fc98 203e
00000320: 4de1 01be 757d f83d 0ce5 ae3c 7b9b 07be
00000330: bc91 db3e 9698 a93e 6967 563e a96f 4b3e
00000340: 84b5 90bb ceb1 63be 1b07 b4be c8f0 0abf
00000350: 05eb d6be 6811 abbd 2a49 503d 26b2 5ebd
00000360: 8918 183e fd8c 843e deb1 a0bc 00ab 023e
00000370: 2d97 94bd 934a 58bc 1551 abbe 8a0b 27be
00000380: 7cdf e0be 8601 0e3e f894 e8bc 05d7 943d
00000390: 3894 e03d 4f48 2d3e d467 ae3d 3ceb acbe
000003a0: d41b 7e3d bb64 883d 7449 07be 7c24 91be
000003b0: 514c 0bbf 138a 323e ec1e 64be 75b1 03bf
000003c0: 6758 dd3d 1c38 7f3c ea15 b63e 7d15 4e3e
000003d0: fc69 383e 1988 2b3e 08c9 683e 7bb4 773e
000003e0: 2f94 2f3e 1b92 bf3e f504 00be 5b5a f2be
000003f0: b237 8b3e d645 13bf 6b1b 8cbd 8b72 c53e
0.11119896 0.32211742 0.019719103 -0.027944397 0.041775316 0.10977026 0.11935545 0.056396652
-0.0257598 0.013322263 -0.1266427 -0.2964544 0.29573473 0.1130259 0.11675995 0.07112462
0.050754625 -0.0782257 0.05060056 0.116507046 -0.114454985 -0.04387497 0.08051233 -0.21658358
0.0039473227 -0.017489268 -0.1689901 0.15532827 -0.046952624 -0.08043627 -0.03967987 -0.7479005
-0.3470101 -0.17077148 -0.5975673 -0.39992052 0.23937657 0.010185245 0.13873191 0.035933267
-0.047476728 -0.23433653 -0.386279 -0.43156573 -0.1404729 -0.11134367 -0.15172094 -0.23192154
-0.1734206 -0.19565058 -0.2316752 -0.08688629 -0.4577011 -0.6280519 0.24363571 -0.06842293
-0.10487572 -0.21397816 -0.20863314 -0.00693305 0.17593637 0.4728654 0.09134804 0.19611266
-0.07106653 0.10808227 0.07579808 -0.0075827646 -0.0061428994 -0.028978182 -0.016476348 -0.3478638
0.40268838 -0.03903504 -0.74831027 0.27849212 0.14960238 0.054063827 -0.034721497 -0.043017067
-0.12406634 -0.21720518 0.047150865 0.36139196 0.02512004 0.04518211 -0.097415045 -0.022587147
-0.14279285 0.14614914 -0.17015617 -0.41993204 -0.47649547 -0.2991523 -0.6952319 -0.73504436
0.20157146 0.08994166 -0.025977802 -0.107626505 0.034815945 -0.08597876 -0.0819169 0.07934627
0.11546532 0.044125147 -0.04708356 0.014733464 0.12879191 0.026792211 -0.24616733 0.010522454
-0.05931961 -0.27216586 0.0066169086 0.046992354 -0.030356294 0.07823711 0.08484221 0.11852429
0.21174769 0.034614947 -0.20211755 0.0063991495 -0.20411052 -0.56793255 0.13123032 -0.2581943
0.5117616 -0.42836165 -0.609192 -0.46435016 0.33224478 0.340689 -0.226825 0.04908303
0.026933251 -0.04939922 0.10791884 0.047811024 0.05956953 -0.07636567 0.014421304 -0.12955505
0.039727226 -0.052935194 -0.033449847 0.14072053 0.019011917 -0.17486379 -0.19731192 -0.24962896
-0.22773331 0.007841835 0.0144454595 -0.15663575 0.041400794 0.02330438 -0.043025054 0.19808848
-0.1179766 -0.38961053 0.009046176 -0.039962202 -0.054917738 -0.05401423 -0.43731478 -0.24608952
0.08358271 0.043780573 -0.31374246 0.23622434 0.14495441 -0.005246016 0.1578395 -0.15124673
-0.18728279 0.11758192 -0.19513714 -0.2621437 -0.5848526 -0.23500365 -0.27452466 -0.04674341
-0.08999713 -0.23531574 -0.45318907 -0.2850958 -0.4353359 0.08594009 0.044277873 -0.07008872
0.1767096 0.14207771 0.016279316 -0.015423917 0.0057765404 -0.37509924 0.11025654 0.15683359
-0.12683602 0.12133304 0.021349452 -0.13242905 0.42884624 0.33124226 0.20937885 0.19866814
-0.0044161696 -0.22235796 -0.3516167 -0.54273653 -0.4197618 -0.08352929 0.050851025 -0.054369114
0.1485311 0.25888816 -0.019616064 0.12760544 -0.07255397 -0.013201374 -0.33460298 -0.16312996
-0.43920505 0.13867769 -0.028391346 0.07267574 0.109657705 0.16922115 0.085158974 -0.3377322
0.062038258 0.06659838 -0.13211614 -0.28348148 -0.54413325 0.17435484 -0.22277421 -0.5144265
0.10807877 0.015577342 0.35563594 0.20125385 0.1800918 0.16751136 0.22732937 0.24189942
0.17146371 0.37416157 -0.12501891 -0.4733456 0.2719093 -0.57528436 -0.06841167 0.38563952

kws_conv2.op.weight f4 [96, 64, 3]
00000000: dbdf 0fbe 26fb 6bbe 854e 85be cb3c 7d3d
00000010: 67ae 3abe e242 0a3d cc97 063e 48d2 403d
00000020: e58b 6cbe 8f65 ba3c 573a f63d 334b 8a3e
00000030: 2e84 bebd 56a8 2cbe 2280 503e 3b06 f6bd
00000040: 3206 5abe 92e1 febe ec5e 9e3e 5a31 803e
00000050: c4f0 af3d c4bf 1f3e 4f90 09be 6f90 aebe
00000060: 7ea6 eabd 926c 503c e7d7 243e 2de5 5d3d
00000070: b2f2 513e 8014 4ebe a3c3 e2bd 1f8a 85bf
00000080: f134 e5be 7755 82be 1f55 b23a b15e 14be
00000090: 290a 16be d404 103e ed7a 5c3e 3a91 43be
000000a0: fab5 aabe 49e5 09bd 9495 44bd ed99 60bc
000000b0: 80ad 783d d11d f0be eb6c 08bf 3b25 0abf
000000c0: 2195 30bd 7eb1 b5be a470 a8be fe62 9dbe
000000d0: 1c6c 59be f92d 53bd fc6c 8cbe 6606 383d
000000e0: 3b4f a73e 9bc8 a73e a8a5 d83d 558a 063f
000000f0: bc6d e6bd b5f6 a83d 7132 b13d 410e 10bd
00000100: e745 a8bd bba0 1fbe 6389 72be 0e03 e3be
00000110: b213 adbe 53c5 f23d 8c85 b43c 2859 133e
00000120: a91c 87be ad3c 93bb b710 da3d 0c9a 89be
00000130: 5524 76be 5edd a7be 9858 02be dfa5 663d
00000140: 5d30 1dbe 13ef da3e a9c9 44bd fe8c 683c
00000150: 537d b93d 04a0 1dbe 7c2e 6ebe c535 adbd
00000160: 4e88 c2bd e6e4 9a3c fc15 0c3e a24e 823d
00000170: 8729 923d 60d7 c43d f91c f1bd 6a0a 12be
00000180: f2f8 d3be 821c d4be debf d13d 9083 293e
00000190: 18c5 5c3e 62d5 df3d 28b3 d5be ad01 b73d
000001a0: 6961 df3d 8425 c3bd 2320 debd 1381 9f3c
000001b0: 1306 e7be 26d3 d53d 3515 79be 100c 4ebe
000001c0: e332 dbbe 0965 62bf d38c b0be 792d 073d
000001d0: e1b9 683d a721 5abe ac82 54be 7bf4 77bc
000001e0: 0e12 b5be cf24 bbbd 49f0 0dbd 3f14 573e
000001f0: 7761 0bbe 5bae 513d 300e 14be f79d b5bd
00000200: 93e7 70be 0272 f3be bd55 aebe 95ea ddbe
00000210: 3129 323e 9061 1cbd 1525 e0be f355 313d
00000220: b402 f5bd 3df9 afbe 8d12 5a3e 0e58 aebd
00000230: e08e de3e c42e 993d 51a3 d73c c0ac 84be
00000240: fe8d a6ba e05d 1c3e 87ec b33e 1fa0 3abd
00000250: 7311 993d 096d 883e b538 e1bd c492 a4bd
00000260: 5dd7 b43e ac23 f13d 1b3e da3d ff6c fa3c
00000270: 3699 c23d 3f69 4e3e ebb1 9c3d 9103 91bd
00000280: 1abf 9ebd 4e20 943e 8c00 e1be 10fa a7be
00000290: dfc1 443e f528 1ebe 45ab cc39 fe9d 913e
000002a0: 655d fcbe f05d 3fbd 688b 493d 2342 b73e
000002b0: 1a1b cc3d 75be b13d ce78 20bd 54c0 3abd
000002c0: 461a 0dbe 6564 1e3d 058d 203d 8aea cbbe
000002d0: 6c48 24be 7912 ff3c 35e5 373d f393 ddbc
000002e0: e3ab be3c cec6 9b3d 8e3b 94be 7249 133a
000002f0: f44f dc3d b707 4f3e 33d1 69bd c486 b63c
00000300: 5ecc 3fbd b049 b9be 8ac5 06bf 7e84 a93d
00000310: 1640 46be d344 0abf dbfb b6bd d996 80be
00000320: 85ba 00be 1289 9f3d f014 b93d 3eff 6f3d
00000330: 9a75 9abd da8b 973e 2dd7 d03e f33f 0e3e
00000340: 1144 ffbb 431f a23e 7d0c 50be ba06 1abe
00000350: 1e97 cebe 3e6a 813e f730 bb3e 7f7a 0abe
00000360: 89cc e93c c6b5 313d 80cb a0bc caf3 233c
00000370: 1ccd 2fbe 7da7 213d fab2 a8be 52fa b9bc
00000380: 28f2 e73e b961 d2bc 70cd 853e 865e 983e
00000390: a481 1fbf 7607 bdbd 91f1 edbe 33bd 9fbd
000003a0: fd86 b9be b811 d4be 2f08 8a3d c7ea 183d
000003b0: dbc1 83bd 46a7 833e 4ca5 f9bc bc56 8bbe
000003c0: cd8c 4dbe 654a a9bc e65f 6b3e 263a f13d
000003d0: 6405 0fbe 964f ddbd d6f3 5e3d 0ace 8bbd
000003e0: 6a10 2b3e fddc 2f3e 8717 a0bd 45fd 0ebe
000003f0: 8894 a43d 9d76 50be cad2 393e eb11 c6be
-0.14050238 -0.23045024 -0.26036468 0.061825555 -0.18230592 0.03375519 0.13143843 0.04707554
-0.2310024 0.022753505 0.12022846 0.27010497 -0.09302555 -0.1686109 0.20361379 -0.12012907
-0.21291426 -0.49781471 0.30931795 0.25037652 0.08590844 0.15600497 -0.13433956 -0.3409457
-0.11457537 0.012721198 0.16097985 0.054173637 0.20502737 -0.20125008 -0.11072471 -1.0432776
-0.44766954 -0.2545583 0.001360569 -0.14489247 -0.14652313 0.14064342 0.21531267 -0.19098368
-0.33341962 -0.03366593 -0.04799421 -0.013708574 0.060712337 -0.46897748 -0.53291196 -0.5396306
-0.04311097 -0.35486978 -0.32898438 -0.30739588 -0.21232647 -0.051557515 -0.27426898 0.044927977
0.32677636 0.32770237 0.105784714 0.5255483 -0.11251399 0.08250181 0.08652199 -0.035169844
-0.08216458 -0.15588658 -0.23685221 -0.44338268 -0.3380409 0.11854043 0.022036336 0.14389479
-0.26389053 -0.004493317 0.10647719 -0.2687534 -0.24037297 -0.32786077 -0.12729108 0.05631053
-0.1535048 0.42760524 -0.04804388 0.014193771 0.09057107 -0.15393072 -0.2325992 -0.08457521
-0.09498654 0.018907975 0.13680261 0.06362654 0.07136827 0.09611392 -0.11773104 -0.14261785
-0.41400868 -0.41428 0.10241674 0.16554093 0.2155956 0.109293714 -0.41738248 0.089358665
0.109072514 -0.0952864 -0.10845973 0.019470727 -0.45121822 0.10440664 -0.24324496 -0.20121789
-0.4281226 -0.8843542 -0.3448244 0.03300235 0.056817893 -0.213019 -0.20752972 -0.015133972
-0.35365337 -0.0913788 -0.034652982 0.21003817 -0.13611399 0.05119167 -0.14458537 -0.0886802
-0.23525839 -0.4754792 -0.34049788 -0.43343034 0.17398526 -0.03817898 -0.4377829 0.04329486
-0.11963406 -0.3436984 0.21296139 -0.08512889 0.4346838 0.07479623 0.026322993 -0.25913048
-0.0012707112 0.15270185 0.35141394 -0.04556286 0.07474031 0.26645687 -0.10997144 -0.08035806
0.3532056 0.11774382 0.10656377 0.030569552 0.09501879 0.20157336 0.07651123 -0.07080758
-0.077512935 0.28930897 -0.4394573 -0.3280797 0.19214581 -0.15445311 0.00039037518 0.2844085
-0.49290004 -0.046720445 0.049205214 0.35792646 0.09966107 0.08678905 -0.03917771 -0.045593575
-0.13779554 0.038669962 0.039196987 -0.39827377 -0.16043252 0.031136738 0.044896323 -0.027048087
0.023275321 0.07606278 -0.28951687 0.0005618549 0.10757437 0.20217787 -0.057084274 0.022281058
-0.04682576 -0.36189032 -0.5264517 0.08277224 -0.19360384 -0.5401127 -0.08934756 -0.25115088
-0.12571152 0.07789816 0.09037197 0.058593027 -0.07541962 0.29598886 0.40789166 0.13891582
-0.0077900966 0.31664476 -0.20317264 -0.15041628 -0.40349668 0.2527637 0.36560795 -0.13523291
0.028539913 0.043386243 -0.019628286 0.010006854 -0.17168087 0.03946637 -0.32949048 -0.02270237
0.45301938 -0.025681363 0.261333 0.29759616 -0.6230719 -0.09229939 -0.46473363 -0.07799759
-0.362358 -0.41419768 0.06739842 0.037333276 -0.06433459 0.25713557 -0.030474328 -0.2721461
-0.20073242 -0.020665357 0.22985801 0.11778669 -0.139669 -0.108061954 0.05443176 -0.06826408
0.1670548 0.17174144 -0.078169875 -0.13963802 0.080361426 -0.20357747 0.18146816 -0.38685545

kws_conv3.op.weight f4 [100, 96, 3]
00000000: a917 5c3e 96ea abbe e609 a4bc 9e3d 47bf
00000010: 4cc7 b8bd 54ae 153e 6b19 8e3d d74d a3be
00000020: 7f61 80be 78db 9bbd 0db0 843c 244e b1be
00000030: fec2 4f3d 08c5 2f3d 0b91 d63e 36a2 b93e
00000040: 24c8 9d3e 1a78 0cbf c80c 07bc aa52 08be
00000050: 1ef6 da3d 7191 a8bd ed58 223e 1569 df3d
00000060: c103 e43d 6e67 7c3c a786 5d3e bc39 d0bd
00000070: 6f16 a8be 9663 abbe d56e d4bd f45e 82bd
00000080: ac00 5cbe 0d20 b9bd 0fc5 93bd 060e 5fbf
00000090: f012 6a3d 761c b13e 72ae 563e 3096 4b3d
000000a0: 7c3b 5bbd 58e9 69bd 7b41 3dbe 0db6 0d3e
000000b0: 5105 87bd cf32 123e ed66 3e3d 8418 52be
000000c0: f7df dabd 5940 04be 036f 8ebf c0e7 6b3e
000000d0: b0e5 043e 41de df3d fca6 89be d09e a13d
000000e0: 4809 8dbe 1253 8cbe 4793 a83d 6bc4 15be
000000f0: 8d40 51bd 1baa 8abe 7a40 0dbe abb4 d8bd
00000100: d0e6 f53d 8cb0 073e 3a0c 47be da14 d3be
00000110: 15d4 90bc b62d a83d b856 f93d d213 b3bd
00000120: 0b9b 05bf c302 7e3c 047e b3be ea45 203e
00000130: 0dcb 043e c098 bb3b b631 04be 6346 e43b
00000140: 85e1 a5bc c5f9 af3e 3869 17bf b8fd 32bf
00000150: 6aa9 aabc a5d1 7cbf 7edc c3be 024b 83bd
00000160: 3e30 e9bb bc10 33bd b599 703d 307b 9bbd
00000170: 7dc9 78be 7816 c4bd e8e8 acbd 8b83 153e
00000180: ff20 c73d 1353 0dbe 6673 92be 7011 be3d
00000190: 9e38 6ebd c723 28be 5115 90be e4a1 57be
000001a0: b05e 233e 5436 69be 2164 9b3c 37bf 3a3e
000001b0: 975b b63c 5100 e43c 22e4 083e 346d c53e
000001c0: 1146 36be 01b6 7a3e 5480 fd3c 4065 3a3e
000001d0: 7493 e1bd 94c0 d0bc 3c31 643e 45cf a03c
000001e0: 9252 163c 3968 adbe ec27 bbbe 92b5 ed3d
000001f0: 2ad3 c63e a881 03bf bf35 b7bd 68c7 85bc
00000200: caf5 4bbc ea09 cb3d 0733 853c 0640 49be
00000210: a7bd 16bf 0c41 a1be 835f d8bd 6d05 97bc
00000220: afa1 91bf 9306 3dbe 7068 c53d 0eba b1be
00000230: bb69 adbe 3a1d 82be b3e5 fc3c 1edb e63d
00000240: 4470 37bd 88a0 dfbe cb08 b53d 7f7c c6be
00000250: 46fb d6be cef5 a3ba 1d72 b7be a83b 2cbf
00000260: c50c d93c 37dc 80be bffe d3be aa85 91be
00000270: 231f 553e 5c4e 693e a750 2abf ebfc 61be
00000280: b2c2 29be 7c78 103e f997 9c3d cfbf 96bd
00000290: a273 d63d 8d30 673e ba0d 86be eaf2 c5be
000002a0: df2f 67be 2fdf e9be 7ca0 acbd 6a14 01bd
000002b0: 707d 8a3e 8a1d adbe 6742 c1bc 9e79 963d
000002c0: cf70 673e fc99 9c3d 1d81 97bd 30f0 7cbe
000002d0: 32d4 34bf 4b4d 78bf b1c3 cf3c 55fa 7b3e
000002e0: 6b84 8c3e 9e45 363e f662 a6bc a8de d73d
000002f0: d866 cc3c 0280 013d aa6b bfbc 1cd0 083e
00000300: 54ae 0ebe d6c1 12be d1db 673e 20e3 0fbe
00000310: b571 3bbe d3d2 56bf 3e4c b63e 7ff0 633e
00000320: 8e79 c63d 856c 363e a2d3 243e 2ea3 603d
00000330: 5a37 9c3d c876 0d3e d056 3dbf bf51 47be
00000340: b205 143e a9b8 1d3e 6cf5 f0be e1c5 523d
00000350: 6754 b73e f4f2 7d3d 665d 2b3e a43b 963c
00000360: 279f bbbe 080a ddbd e3c6 fabd 87e0 993e
00000370: c693 7ebd fd41 d5be e0e0 88be 6ee7 853c
00000380: a0a9 5cbf 1502 9d3d 9570 ad3e 6536 c03e
00000390: 73e2 273e e378 0b3e e7df f2be 6db6 02b8
000003a0: b68c 263e 4333 473d 0d72 3bbe 7c91 ac3d
000003b0: 920b 6e3e f156 20bf 70ab 0b3e 4a78 6e3c
000003c0: 2f92 823c bd76 afbc c923 353e 1d04 9abd
000003d0: 948b b2bd 8e2b 5e3d ca49 25bf c346 2cbe
000003e0: 6365 19be 3dfd 4cbe ff97 8e3d db5b 24bf
000003f0: 39ae dcbd 944f 103c b7ed d83d 0f86 fbbe
0.214934 -0.33577412 -0.020024251 -0.77828395 -0.09022388 0.14617282 0.06938442 -0.31895325
-0.25074384 -0.0761022 0.016197229 -0.3462993 0.05072307 0.042912513 0.41907534 0.3625657
0.30816758 -0.5487076 -0.008242793 -0.13312784 0.106914744 -0.08230866 0.15854235 0.10908715
0.111335285 0.015405519 0.21633397 -0.10167262 -0.32829615 -0.33474416 -0.10372702 -0.06365767
-0.21484631 -0.09039316 -0.0721532 -0.87130773 0.057146966 0.34592026 0.20964983 0.049703777
-0.053523526 -0.0571073 -0.1848201 0.13838978 -0.06592811 0.14277194 0.046484876 -0.20517164
-0.10687249 -0.12915172 -1.1127628 0.23037624 0.12978244 0.109310634 -0.2688521 0.07891619
-0.27546144 -0.27407128 0.08231216 -0.14625709 -0.05108695 -0.27082905 -0.13794127 -0.10581335
0.120069146 0.13250941 -0.19438258 -0.41226846 -0.017679254 0.08211844 0.121747434 -0.08744015
-0.521897 0.015503588 -0.3505708 0.1565167 0.12968083 0.0057249963 -0.12909588 0.0069663986
-0.020249138 0.34370247 -0.59144926 -0.69918394 -0.020832736 -0.9875739 -0.3825416 -0.06410791
-0.0071163466 -0.04371713 0.058740336 -0.075918555 -0.24295612 -0.09574598 -0.08442861 0.14600961
0.097230904 -0.13801222 -0.28603667 0.0928067 -0.058159463 -0.16419898 -0.28141263 -0.2105785
0.15954089 -0.22774631 0.018968644 0.18237005 0.02226047 0.027832182 0.13368276 0.38559878
-0.17800166 0.24483491 0.03094498 0.18202686 -0.110144526 -0.025482453 0.22284406 0.019630084
0.00917496 -0.33868578 -0.36553895 0.116068974 0.3883298 -0.51369715 -0.08945798 -0.016330436
-0.012448737 0.09914 0.016259683 -0.19653329 -0.58883137 -0.3149494 -0.105650924 -0.018435204
-1.1377467 -0.18459539 0.096390605 -0.3471226 -0.33869728 -0.25412923 0.030871248 0.11272262
-0.0447848 -0.43677163 0.08839568 -0.38766858 -0.4198858 -0.0012509169 -0.3582925 -0.6727853
0.026495347 -0.2516801 -0.41405293 -0.2842229 0.20812659 0.22783798 -0.66529316 -0.22069137
-0.16578177 0.14108461 0.07646174 -0.07360803 0.10471274 0.22577114 -0.26182348 -0.3866189
-0.22576855 -0.45678088 -0.084290475 -0.03151361 0.27048826 -0.338116 -0.023591233 0.073474154
0.22601627 0.07646558 -0.07397673 -0.24701 -0.70636284 -0.9699294 0.025361868 0.24607213
0.27444777 0.17799994 -0.02031086 0.10540515 0.024951383 0.03161622 -0.023366768 0.13360637
-0.13933688 -0.14331755 0.22642447 -0.14051485 -0.18305095 -0.8391544 0.35605043 0.2225971
0.096911535 0.17814834 0.16096357 0.05484312 0.07627745 0.13814843 -0.7396059 -0.19464777
0.14455298 0.15402474 -0.47062242 0.051458243 0.3580658 0.061999276 0.16734847 0.018338986
-0.3664486 -0.10792929 -0.12244966 0.30054113 -0.062152646 -0.41651908 -0.26734066 0.016345706
-0.8619633 0.07666413 0.33874956 0.375415 0.16394977 0.13620333 -0.4743645 -3.1164313e-05
0.16264614 0.04863287 -0.18305226 0.084261864 0.23246601 -0.6263266 0.13639617 0.014555046
0.015938846 -0.021418924 0.17689432 -0.07520316 -0.08718029 0.054240756 -0.6456572 -0.16823868
-0.14980082 -0.20018478 0.06962585 -0.6420266 -0.10775418 0.008808035 0.105922155 -0.49125716

kws_conv4.op.weight f4 [64, 100, 6]
00000000: ae8e 55be 1eed 16bd bb56 f53d f95c 12be
00000010: 7c8c f43e b859 a03d 19b4 f5bc c3f5 49be
00000020: bd4a a13c 6659 0abe d6c5 71be 0e4e 45bf
00000030: ffda 2e3f c136 2f3f 3ac5 f03e 5b7a cc3e
00000040: efd4 fb3e ce10 833f 0402 32bf ffaa 8ebe
00000050: ffaa bdbe 5830 533e dca7 3abe 6c40 5ebf
00000060: 9a0a 9fbf ef8e 3ebf d170 343d dc63 31be
00000070: 8eb1 bebe e576 57bf af54 0dbe 47e2 343e
00000080: 19a2 893d 58c9 643e 6eb1 8b3e 28ac 563f
00000090: c883 403f 1e5b aa3e fa63 d73e d5f2 de3e
000000a0: 4f89 403f e97b f93f 159f ce3e 4880 9b3e
000000b0: 718b 85be 1371 493e 0e76 35be a9fe 75be
000000c0: feaa e23e b781 113e 6009 10be b483 dcbd
000000d0: 4f64 c7be 8d5d 83be 72c3 84bd 6bec c13e
000000e0: aa1b c7bd 2708 04bf a65d 71be 7976 b1bd
000000f0: f9b1 393f 9a81 303f 0ca2 3b3f 58a4 283f
00000100: 68c5 6b3f 1054 943f 3747 1ebf 74c3 d4bd
00000110: 589b c3be f1b6 8cbe 8e25 bebe ead1 ecbe
00000120: 7cda 873e 0ada 853e b9a8 893e 2a46 e33d
00000130: 06ca 37be afbc a13d 7342 4cbe 0974 8cbe
00000140: e77b 7dbe 877a 1a3e 8bb8 983e 80f7 62be
00000150: b4b5 80be 4911 093d 35cd 75be 7180 5cbe
00000160: 284f c9be bd63 4fbe 577b 57be eca4 cebe
00000170: f3d9 d9bd 7201 25bf d1c9 25bf 004e edbf
00000180: ef0c bebe 8483 b2be 6d4d fabd de08 f23d
00000190: 89c2 f5bd a6ea 483d 6b8c b03e 4cca f83c
000001a0: 8307 75be f77a 39bc 1ce6 6d3d b02a 47bc
000001b0: 43b1 d9bf c4e5 a4bf 067b 26bf 93c2 6dbe
000001c0: 694c 0bbf 7080 8bbf e7d2 e03f a2ff 1c3f
000001d0: 3372 c73e 4524 373f 796e d23e 261c c3bc
000001e0: 7127 8f3f 8778 1c3f 67e3 273f 4b57 b83e
000001f0: 6437 853e 45f0 9d3f 7e29 8dbe 3ac6 db3e
00000200: c29e 7a3e 74b0 34bd fe5a 48bf 866c e2be
00000210: 108e 2ebf 4a58 46bd 455c debb 4849 4a3e
00000220: d45e 1fbe 9cd0 9dbe f50f 953e 3540 d63d
00000230: f73c 0fbe 841d 3abe 6c6b 61be 401e abbe
00000240: 6da2 6ebe 7365 12bf 685e dc3d b20c b8be
00000250: 1e48 1fbf 1a42 4bbf b5eb 1d3e 9b47 33be
00000260: e030 103e f0f7 90be 2276 acbd 144d 4c3e
00000270: 2928 c7be 655d 97bd a921 76be 800e 02be
00000280: ca4a 32be 1bdf fe3e 70a3 60bf 5c0f c8be
00000290: 24d8 37bd c330 b83d 5147 24bd baa8 463c
000002a0: 9540 e0be a605 93bc c401 92bd 54ef ac3d
000002b0: d3ed 30be 3861 4d3d 2a95 7fbe 1e57 32bd
000002c0: 22d0 e9be d714 13be e0dd 643a f250 e03d
000002d0: 8bd6 9dbe 1577 133f 5405 e93e ced1 f43e
000002e0: 376e 393f 3391 553f e312 743f bb00 eb3e
000002f0: 7fa4 813e 3620 1dbe b745 233e 68cf 1bbe
00000300: fdd5 9e3e 5e05 953e e49d 213e 04bc 903e
00000310: e4a7 f43d d4b1 923e b234 b93e 2778 bc3e
00000320: 9360 78bc 2ee6 703e 0ea6 1c3f 1cbd 893f
00000330: a09c 35bd 9674 82bd cb09 0ebe 26f4 1e3e
00000340: 7b2a f93e beaa 873f b9a0 ef3e 9de7 0b3f
00000350: ee4d cc3e 1a38 0d3f 00fb ff3e 312e f93e
00000360: da1c 28bf 88d1 8cbe bfe9 883d 1dec 503e
00000370: 83c0 253e 64e1 f23d bab1 52bf 8b3c cdbe
00000380: ba37 88be 0294 3d3d 1c1e 1dbe ce6c d9be
00000390: 174e 48bf 8e8f 60bf 9765 8abe 8207 51be
000003a0: 2279 13bf 125f 45bf 0e6b 113f 2e6d 03bc
000003b0: 333a f0bc 8c6f 45be dabc c93d 5e6c 07be
000003c0: 8ea7 9a3f a1ea 823f 6187 363f a991 723f
000003d0: 27b8 893f 8e12 843f bb6e bebe 15aa 9bbe
000003e0: c6bf 09be 72e1 a3be 7e15 c1be 82db e7be
000003f0: 70e9 223f 6e2f cabd 7f1e 883e bd89 8a3e
-0.20855209 -0.036847226 0.11979433 -0.14293279 0.4776343 0.078296125 -0.029993104 -0.19722657
0.019688958 -0.13510665 -0.23610625 -0.77072227 0.6830291 0.6844292 0.47025472 0.399371
0.49185893 1.0239503 -0.69534326 -0.27864835 -0.37044522 0.2062391 -0.18228096 -0.8681705
-1.242511 -0.7443685 0.044052903 -0.1732325 -0.37244838 -0.84165794 -0.13801835 0.17664443
0.06720371 0.22342432 0.27283806 0.8385644 0.7520108 0.33272642 0.42068464 0.4354464
0.75209516 1.9490939 0.40355745 0.30371308 -0.26082948 0.1967204 -0.17720816 -0.24022926
0.44271082 0.14209639 -0.14066076 -0.10767308 -0.38943717 -0.2565731 -0.06482591 0.37875685
-0.097220734 -0.5157494 -0.2357088 -0.08665175 0.7253719 0.68947756 0.7329414 0.6587577
0.92098093 1.1588154 -0.61827415 -0.10388842 -0.38204455 -0.27483323 -0.37138027 -0.46253902
0.26533878 0.26142913 0.26886538 0.11097367 -0.1794816 0.07897317 -0.19947223 -0.27432278
-0.24754296 0.15085803 0.29828295 -0.22164726 -0.25138628 0.03346375 -0.24004062 -0.21533372
-0.39318204 -0.20252891 -0.21043144 -0.403602 -0.10637274 -0.6445533 -0.6476107 -1.8539429
-0.37119243 -0.34865963 -0.12221799 0.118180975 -0.11999995 0.049051903 0.3448213 0.0303699
-0.23928647 -0.011320821 0.058080778 -0.012156174 -1.7007221 -1.2882619 -0.6503147 -0.23218755
-0.5441347 -1.0898571 1.7564362 0.61327565 0.38954315 0.7153972 0.4109991 -0.023817133
1.1183912 0.6112141 0.65581363 0.360041 0.26018822 1.233895 -0.2757072 0.42924672
0.24474624 -0.04411359 -0.78263843 -0.44223422 -0.6818552 -0.048424043 -0.0067859017 0.19754517
-0.15563518 -0.3082322 0.29113737 0.10461465 -0.139881 -0.18175322 -0.22013634 -0.33421516
-0.23304148 -0.5718605 0.10760194 -0.35947186 -0.6221942 -0.7939774 0.15421946 -0.17507784
0.14081144 -0.2831416 -0.084209695 0.19951278 -0.38897827 -0.073908605 -0.24036278 -0.12700844
-0.17411342 0.4977959 -0.87749386 -0.39074218 -0.044883862 0.089936756 -0.040107075 0.0121251885
-0.43799272 -0.01794703 -0.07129243 0.08444086 -0.17278223 0.050141543 -0.24959245 -0.043540113
-0.45666605 -0.14363419 0.0008730572 0.10952939 -0.30827746 0.5760358 0.45511878 0.47816318
0.724338 0.8342468 0.9534132 0.45898995 0.25320813 -0.15344319 0.15944563 -0.15215838
0.31022635 0.29105657 0.15782887 0.28268445 0.11946085 0.28651297 0.36173016 0.3681042
-0.015159744 0.23525307 0.6119088 1.0760837 -0.044338822 -0.06369893 -0.13870923 0.15522823
0.48665223 1.0598981 0.4680231 0.5465029 0.39903206 0.5516373 0.49996185 0.48668054
-0.65669024 -0.2750361 0.066852085 0.2040257 0.16186719 0.11859396 -0.8230244 -0.40085253
-0.26605016 0.04628373 -0.15343517 -0.42465824 -0.78244156 -0.8771905 -0.27030632 -0.2041302
-0.5760671 -0.7709819 0.5680398 -0.008021636 -0.029324627 -0.19280833 0.09850474 -0.13224933
1.2082384 1.0227853 0.7130032 0.9475351 1.0759324 1.0318162 -0.37193856 -0.304032
-0.13452062 -0.3200794 -0.3771171 -0.4528466 0.6363745 -0.09872328 0.26585767 0.2705821
